Kazakh ChatBot/Kazakh ChatBot/data.pth (torch, 4895 bytes, 6 tensors)

l1.weight f4 [8, 39]
000000 ee 5e 74 3e 3f af 25 3f cf 32 e0 be 4b f5 a1 3e
       0.23864338 0.6472053 -0.43788764 0.31632456
000010 a5 75 ba 3d 01 d7 0a 3f 47 36 ac 3e 21 87 30 3f
       0.0910447 0.5423432 0.3363516 0.6895619
000020 55 18 67 3f ce a4 0e 3f e5 b8 b9 3e 0b 60 96 be
       0.902715 0.5572022 0.36273876 -0.2937015
000030 21 85 ce 3e f8 44 82 3f c8 13 fe 3e 6c c3 23 3f
       0.40335944 1.0177298 0.49624467 0.63970065
000040 44 6f 4b bf 15 8c a5 3e ba 25 81 3e f2 e3 8e bf
       -0.7946665 0.32333437 0.25224096 -1.1163313
000050 78 2c dd be dd 68 60 3e ee f8 61 be 1f f0 b6 be
       -0.4319799 0.21915002 -0.22067615 -0.35730073
000060 09 fa 81 3f 82 bc a1 be aa c5 6b bf a6 21 1b bf
       1.015443 -0.31589133 -0.92098486 -0.6059822
000070 d5 c9 0c 3f 44 ff 2d 3f 85 1e 5c 3f e7 37 d5 3d
       0.5499547 0.6796763 0.8598407 0.10411053
000080 4b 2f 9c 3e dc d4 de 3e b1 03 1c bf a0 43 30 3e
       0.30504832 0.43521774 -0.6094313 0.17213297
000090 49 15 9b 3e dc b5 67 3e 43 1a df be c7 a8 00 3f
       0.30289677 0.22627968 -0.43574724 0.50257534
0000a0 9c 30 5a be 74 b1 4b 3f 9b ad ed bd a1 24 3f be
       -0.21307606 0.79567647 -0.11605378 -0.18666317
0000b0 0e d5 da bd 56 d3 ce bd 32 c2 d1 be 11 49 76 bf
       -0.10685168 -0.10098903 -0.40968472 -0.9620524
0000c0 9a 43 2f be 3b d9 6a be ce 8d 76 be 17 0e 98 3e
       -0.17115632 -0.2293443 -0.24077532 0.2969825
0000d0 7c 8b f1 be ea 14 f3 3e 44 6a 29 3f 6c 39 1f 3f
       -0.4717673 0.47476894 0.66177773 0.62196994
0000e0 c5 e0 96 bb c2 b6 eb 3e eb 6e ff be c1 68 5c be
       -0.0046044313 0.4603787 -0.4988931 -0.21524335
0000f0 9f 9e 4f 3c 15 75 1e 3f 30 33 41 be 24 df 91 be
       0.012672096 0.61897403 -0.18867183 -0.28490555
000100 ed 67 69 be 41 3f f2 be ba 22 09 bf d4 3f 05 3f
       -0.22793551 -0.47313884 -0.53568614 0.5205052
000110 2a fb d9 3e a9 32 ec bc c0 cc a7 3e 20 7f c1 bd
       0.42574435 -0.02883275 0.327734 -0.09448075
000120 23 12 8e 3e dd 6b 11 bf 1c b7 99 bd 21 91 3b be
       0.27748212 -0.5680521 -0.075056285 -0.18317081
000130 61 7a a8 3e 18 2b 45 3f 69 da fe 3e 3d d8 cd bc
       0.32905868 0.7701888 0.4977601 -0.025127525
000140 62 e8 a2 be d5 e2 77 3e 5b 47 08 be cb e6 a7 be
       -0.3181792 0.24207623 -0.1330847 -0.3279327
000150 f6 5a 1c be 8b 34 ad 3d 93 90 53 be 3f d0 9c be
       -0.15269074 0.084572874 -0.2066062 -0.3062763
000160 a9 b5 17 39 52 a8 5e be ea 76 f9 3e 97 0c 8b be
       0.00014468156 -0.21743897 0.48723537 -0.27158043
000170 92 83 f9 3e 0d 54 30 3f c1 fd 88 bc 63 57 83 3d
       0.48733193 0.6887825 -0.016722562 0.06413152
000180 af d7 b7 3e 20 3d 66 3e 24 28 a0 3e a1 50 b6 be
       0.3590674 0.22484255 0.31280625 -0.3560839
000190 ba a1 8c be 62 fc 66 3e ae 74 37 bf a2 c3 d0 bd
       -0.27467138 0.22557214 -0.71662414 -0.10193564
0001a0 6e 81 96 bd df 57 b4 be 63 84 cd 3e ae 86 0e 3f
       -0.073489055 -0.3522329 0.40140066 0.55674255
0001b0 4a 08 6a be 16 00 44 be 8f b1 92 3e e9 78 09 3f
       -0.22854725 -0.19140658 0.2865109 0.5370012
0001c0 fd 4c bf be 0a f5 9b be 0b dd 24 3c da 9e 01 be
       -0.37363425 -0.30460387 0.010062466 -0.12658253
0001d0 51 1d 96 3f 40 2e 46 3f f2 29 a1 be 9b f2 bb 3e
       1.1727697 0.7741432 -0.31477314 0.3670853
0001e0 ce d8 02 be de c1 57 3e e3 70 e7 bc 77 1e 7d 3d
       -0.12778017 0.21070048 -0.02825207 0.06179663
0001f0 95 83 0e bf 9c ca 43 bf 8d a7 65 3f 3e a8 5f be
       -0.5566953 -0.7648103 0.8970879 -0.21841523
000200 d9 51 3b 3f b6 0f f4 3e 61 d6 02 bf 53 af ef 3e
       0.73171765 0.47668236 -0.51108366 0.4681345
000210 0e 96 10 3f 71 54 2b 3f 77 ca 80 be 0f aa 53 3e
       0.56478965 0.6692572 -0.25154468 0.20670341
000220 04 6d 60 3f 97 d6 6c be 1b 3d c7 be 83 16 07 3e
       0.87666345 -0.23128735 -0.38913807 0.13192181
000230 38 11 a7 bc 2e 63 94 be 68 ea 37 3f a6 ad 6d 3f
       -0.020393953 -0.28981918 0.7184205 0.9284309
000240 d2 76 68 3f b5 ab 22 3f d7 e9 c0 3e 09 a6 af 3e
       0.90806305 0.63543254 0.37678406 0.34306362
000250 98 e6 16 bd 08 9c 0b be dc 41 ea 3e e6 24 5b 3f
       -0.036841005 -0.1363374 0.45753372 0.8560318
000260 b1 cc b5 bd b0 3f 18 be 73 81 65 3d 0e 05 48 bf
       -0.088769324 -0.14868045 0.056031656 -0.7813271
000270 45 e0 23 3f 42 f4 9f be ba 6b 4a 3f 37 4a b2 bd
       0.64014083 -0.3124104 0.7907063 -0.087055616
000280 58 4a 08 bf 56 c1 80 bd c1 3d 55 be c8 c5 26 3f
       -0.5323844 -0.06286876 -0.20824338 0.6514554
000290 d0 1a a0 3e 99 a8 42 be e2 f0 81 be 68 8b 18 3f
       0.31270456 -0.19009627 -0.25379092 0.5958772
0002a0 e2 6a a6 3e 54 03 b5 be ed f3 f2 3e c1 21 6a 3e
       0.3250342 -0.35354102 0.47451726 0.22864439
0002b0 d0 a2 76 3f 6e ca 86 3c 3a ef 76 3e fb 97 b1 be
       0.9634218 0.016453948 0.24114695 -0.34686264
0002c0 fe 0a 24 be 27 ba 18 3f 99 b9 cd 3e ed 77 ba be
       -0.16019818 0.59659046 0.40180662 -0.3641962
0002d0 66 49 53 be a5 6f 00 3f 16 e5 0f 3f fe 5d 54 3f
       -0.20633468 0.50170356 0.5620893 0.8295592
0002e0 0c 55 2b bd 45 bf 3e bc 7a e5 0d bf dd 13 c0 3e
       -0.041829154 -0.011642282 -0.5542828 0.37515154
0002f0 9a 43 25 be cd d2 16 3e aa b6 27 3f 56 33 42 be
       -0.16139069 0.14728852 0.655131 -0.18964896
000300 71 c4 9d be 16 a2 0b 3f 5d ca fc be be cb 38 be
       -0.30813935 0.545442 -0.4937314 -0.18046471
000310 42 c0 89 bd 35 92 92 3e ef a7 0e 3f b7 ee fc 3e
       -0.067261234 0.28627172 0.55724996 0.49400875
000320 01 fb 98 3d 91 e9 38 3f 24 80 46 3f 0d a4 e0 3e
       0.0746975 0.72231394 0.7753928 0.4387516
000330 4b 91 88 be 07 51 12 3f 1c 7c 88 bb 08 b2 8a be
       -0.2667335 0.5715489 -0.0041651856 -0.27088952
000340 15 fa 16 3e 28 a2 69 be fc 79 ff be 0e 2e 68 3f
       0.14743836 -0.22815764 -0.49897754 0.90695274
000350 47 f2 ec 3e 51 13 2e be 6d 9d 52 3f 45 c6 02 3f
       0.46278593 -0.16999556 0.8227146 0.51083785
000360 22 b7 2c 3f 0e 39 10 3e ea ac 12 3f 4b 30 91 bd
       0.6746694 0.14084265 0.57295096 -0.07089289
000370 af f4 9a 3d 92 86 9c 3e df 2b 92 bd 3b 5c 36 bf
       0.07566201 0.3057142 -0.07137274 -0.7123448
000380 64 a3 b1 be 61 99 c0 be ff 8b c6 3d 53 07 d7 3e
       -0.3469497 -0.3761702 0.09694671 0.41997775
000390 45 fa f7 be 5e 24 bc bd 15 6d 24 3f 6d 4a 91 3e
       -0.48433128 -0.09186624 0.64228946 0.28377095
0003a0 f8 24 89 3e eb ae 66 3f b0 bb 34 be a2 f8 96 3e
       0.26786017 0.90110654 -0.17649722 0.29486567
0003b0 98 dd dc 3d c0 3f 82 3e ac 0d 7f 3f 27 38 89 3e
       0.10784453 0.25439262 0.99630237 0.26800653
0003c0 c5 d5 65 3f b4 dd 44 3f c3 da 0f 3f a2 60 88 3e
       0.8977931 0.7690079 0.5619318 0.26636225
0003d0 e5 80 ed 3e 94 c5 11 3f 37 51 83 be 3c b2 38 3f
       0.463874 0.56942105 -0.256479 0.72146964
0003e0 8f df 9b be 44 fd 22 bf 55 18 6e 3f e9 e7 d8 3e
       -0.30444 -0.636677 0.9300588 0.42364433
0003f0 b9 90 77 bd 00 7c 47 3f 66 fc a6 3e 55 38 37 3f
       -0.060440753 0.77923584 0.3261444 0.7157033

l1.bias f4 [8]
000000 72 82 1b 3f 31 da 2b 3f 9f c8 08 3f 5e f8 70 3f
       0.6074592 0.6712981 0.53431123 0.9412898
000010 a9 0b 3f 3f 5b 7a 36 3f fe b8 22 3f 4d 85 1e 3f
       0.74627167 0.7128045 0.63563526 0.6192215

l2.weight f4 [8, 8]
000000 fe 9c a4 3e cc eb db bd 0e de ec bd 2c 37 a8 be
       0.32151026 -0.10738334 -0.11565791 -0.32854593
000010 db ac bc 3d 41 ac ad be 03 12 61 bd e0 51 19 bc
       0.09212657 -0.33920482 -0.054948818 -0.009357899
000020 af da f2 bd cc 9f d3 be 56 00 60 3e a5 31 81 3f
       -0.11858117 -0.41332853 0.21875128 1.0093275
000030 53 60 0c bf 03 b9 fb 3e f4 45 85 3f 99 6c 83 bf
       -0.5483448 0.4916459 1.0411973 -1.0267516
000040 a4 01 89 bf 85 43 9d be d9 2c 25 bf 92 b4 76 3e
       -1.0703626 -0.30715576 -0.6452156 0.2409232
000050 42 7a 96 3f b0 78 6e 3f a6 10 90 3f 75 0b 38 3e
       1.175606 0.93152905 1.1255081 0.1797312
000060 5f 2a c5 3e da 3d 68 3f d1 92 43 3f af 6e 9f 3f
       0.3850889 0.9071938 0.763959 1.2455653
000070 6b 93 85 3f e3 29 01 bf 6d f8 8d be 2f 79 4e 3f
       1.0435613 -0.5045454 -0.27728596 0.8065366
000080 5a 4c b6 3e 9e c0 93 3f 20 92 8e 3f bb 2f 71 3d
       0.35605127 1.1543157 1.1138344 0.05888341
000090 b5 70 a5 bd 6d cd 65 3e f1 ab 99 be 48 1b c5 3f
       -0.08078138 0.22441645 -0.30013993 1.539895
0000a0 06 ff 2f bd 88 63 00 bf a9 ee 75 3f c4 0b 08 bf
       -0.04296782 -0.5015187 0.9606729 -0.5314295
0000b0 a3 0a 23 bf a3 ea 7e 3f 54 12 27 3f 48 dc 05 3d
       -0.63688105 0.9957678 0.6526234 0.03268078
0000c0 cf cc 92 3f e3 a8 65 bd 7e a4 86 bf 52 81 87 bf
       1.1468753 -0.056069266 -1.0518949 -1.058634
0000d0 51 12 14 3f 0f a8 32 3f 82 a2 a6 3e 33 a3 15 3f
       0.5784045 0.6978769 0.3254586 0.5845215
0000e0 97 21 b7 3f 5b b3 ee be 4b d6 a8 bf 5e ad be bd
       1.4307126 -0.46621212 -1.3190397 -0.09310411
0000f0 71 d3 2a be f6 2b 1b bd 2a db 33 3f ab e1 bc 3d
       -0.16682221 -0.03788372 0.7025629 0.0922273

l2.bias f4 [8]
000000 9f 7e 22 be 91 6a 1a 3f 66 a1 1a 3f 52 7f c9 3e
       -0.15868615 0.6031886 0.60402524 0.3935495
000010 8c ac bc bd 15 20 c8 3e 74 d3 b7 3d c0 53 7b 3d
       -0.09212598 0.39086977 0.08975878 0.061359167

l3.weight f4 [8, 8]
000000 28 07 a1 3d 60 cc b5 3e 94 52 1c 3e d0 d4 87 bf
       0.07862693 0.35507488 0.15265876 -1.061182
000010 cf c6 bc 3e 7c 09 1e 3f c3 df 09 be 42 c3 74 bf
       0.3687043 0.6173322 -0.13464265 -0.9561044
000020 f4 8b 68 be 06 d6 aa bc bc e1 0f be 1c a4 b0 bf
       -0.22709638 -0.020854007 -0.14050955 -1.3800082
000030 31 39 c1 bf 5e cf 5f 3e 9b 7c 28 3f ca 91 8c 3f
       -1.5095578 0.21856448 0.6581513 1.0981991
000040 b9 61 6c 3d a9 9e 06 3f ee 12 17 3f 46 8b 9c bf
       0.057710383 0.52585846 0.5901326 -1.2230003
000050 c5 16 a3 bf 4d 9c 1c 3f 05 50 d2 be cc fe ab be
       -1.2741324 0.61175996 -0.41076675 -0.33592832
000060 88 92 7f 3d 73 d2 1c bf 27 9a b5 3e a8 e7 e0 3e
       0.062395602 -0.6125862 0.3546917 0.4392674
000070 dc d3 f7 3e 47 b3 8b bf 57 aa a4 be a2 57 cd bf
       0.48403823 -1.0914086 -0.3216121 -1.6042368
000080 1a ee 83 be 70 7a 07 3f 5a ed 8f bf 40 b9 dc 3e
       -0.25767595 0.529212 -1.1244309 0.43110085
000090 18 a9 c3 bd 49 32 ff be fb fd 12 bf dd f6 de 3e
       -0.095537364 -0.49843052 -0.57418793 0.43547717
0000a0 44 39 0e be 8e e0 53 bf 5f 00 a4 bf 71 54 64 3f
       -0.13889033 -0.8276452 -1.2812613 0.8919135
0000b0 ab a2 7b 3f 8f 4a 35 bf 03 de a7 bf 71 81 ca bf
       0.98295087 -0.7081689 -1.3114628 -1.5820752
0000c0 17 02 a6 bd 90 bb a1 bf 85 19 ec 3e 89 5c 8b be
       -0.08105867 -1.2635365 0.4611322 -0.27219036
0000d0 ed 14 a4 be 0e 09 c6 be 40 7a f6 3e 9d cd 16 3f
       -0.32047215 -0.38678783 0.48140144 0.5890749
0000e0 7d e5 cf 3d e5 f9 39 3f 8a 57 3e 3f b5 81 07 3f
       0.10151193 0.72646934 0.74352324 0.5293229
0000f0 ff f7 a6 bf 00 09 a3 bf 5c 89 b6 bf f1 d6 c2 bf
       -1.3044432 -1.2737122 -1.4260669 -1.5221845

l3.bias f4 [8]
000000 44 2e 2d 3e d9 95 16 3e 60 4c 81 3d 48 08 fe be
       0.1691218 0.147056 0.063133955 -0.49615693
000010 b7 0a eb 3e b6 c4 9e 3e 2d c1 a2 be 02 0b c4 3d
       0.45906612 0.31009454 -0.31788006 0.09572412
